…
     "output_type": "execute_result"
    }
   ],
   "source": [
    "x_train.shape[1:]"
   ]
  },
  {
   "cell_type": "code",
   "execution_count": 35,
   "id": "e3ff6716",
   "metadata": {
    "scrolled": true
   },
   "outputs": [
    {
     "name": "stdout",
     "output_type": "stream",
     "text": [
      "Model: \"sequential\"\n",
      "_________________________________________________________________\n",
      " Layer (type)                Output Shape              Param #   \n",
      "=================================================================\n",
      " conv2d (Conv2D)             (None, 209, 269, 32)      320       \n",
      "                                                                 \n",
      " max_pooling2d (MaxPooling2D  (None, 104, 134, 32)     0         \n",
      " )                                                               \n",
      "                                                                 \n",
      " conv2d_1 (Conv2D)           (None, 102, 132, 30)      8670      \n",
      "                                                                 \n",
      " max_pooling2d_1 (MaxPooling  (None, 51, 66, 30)       0         \n",
      " 2D)                                                             \n",
      "                                                                 \n",
      " flatten (Flatten)           (None, 100980)            0         \n",
      "                                                                 \n",
      " dense (Dense)               (None, 32)                3231392   \n",
      "                                                                 \n",
      " dropout (Dropout)           (None, 32)                0         \n",
      "                                                                 \n",
      " dense_1 (Dense)             (None, 16)                528       \n",
      "                                                                 \n",
      "=================================================================\n",
      "Total params: 3,240,910\n",
      "Trainable params: 3,240,910\n",
      "Non-trainable params: 0\n",
      "_________________________________________________________________\n"
     ]
    }
   ],
   "source": [
    "model.summary()"
…
